train_tinyml/results/test_epoch5/tflite_non_stream/non_stream.tflite (tflite, 9152 bytes, 14 tensors)

streaming/activation_1/Relu;streaming/batch_normalization_1/FusedBatchNormV3;streaming/stream_1/depthwise_conv2d/depthwise;stream_1/bias;streaming/stream_1/depthwise_conv2d/BiasAdd f4 [3]
0.34224257 0.14688616 1.4989222
00000000: 6b3a af3e 5369 163e afdc bf3f

streaming/activation_2/Relu;streaming/batch_normalization_2/FusedBatchNormV3;streaming/stream_2/depthwise_conv2d_1/depthwise;stream_2/bias;streaming/stream_2/depthwise_conv2d_1/BiasAdd f4 [6]
0.42464653 0.75905746 0.26310053 -0.14376695 -0.20009798 0.27623108
00000000: 456b d93e 9751 423f 1db5 863e a537 13be
00000010: 7ce6 4cbe 296e 8d3e

streaming/activation_3/Relu;streaming/batch_normalization_3/FusedBatchNormV3;streaming/stream_4/depthwise_conv2d_2/depthwise;stream_4/bias;streaming/stream_4/depthwise_conv2d_2/BiasAdd f4 [12]
0.05225557 -0.10840816 -0.8569129 1.586446 -1.4599924 -2.9309862 -0.86068714 0.66644865
0.88804555 -1.4504743 0.3774129 -1.4756776
00000000: f009 563d 1905 debd a55e 5bbf aa10 cb3f
00000010: 08e1 babf 4795 3bc0 fe55 5cbf 619c 2a3f
00000020: f456 633f 24a9 b9bf 433c c13e 01e3 bcbf

streaming/activation_4/Relu;streaming/batch_normalization_4/FusedBatchNormV3;streaming/stream_5/depthwise_conv2d_3/depthwise;stream_5/bias;streaming/stream_5/depthwise_conv2d_3/BiasAdd f4 [24]
-1.4161226 -0.40174067 -0.39618218 -0.71406126 -0.83808005 -0.8788565 1.4975455 1.3701926
1.6287495 -1.1180527 1.5341754 -0.89360857 0.3825592 -0.7778599 0.062303454 -0.18619847
-0.4296823 -0.86110675 -0.6832602 0.26910308 -0.99895513 -0.76413894 -0.32035014 -0.112657085
00000000: 8143 b5bf f4b0 cdbe 64d8 cabe b8cc 36bf
00000010: 6a8c 56bf bdfc 60bf 92af bf3f 7962 af3f
00000020: dd7a d03f 5a1c 8fbf dc5f c43f 88c3 64bf
00000030: cdde c33e d421 47bf e831 7f3d d0aa 3ebe
00000040: 52ff dbbe 7e71 5cbf 24ea 2ebf e1c7 893e
00000050: 86bb 7fbf 9c9e 43bf ef04 a4be c2b8 e6bd

streaming/activation/Relu;streaming/batch_normalization/FusedBatchNormV3;stream/bias;streaming/stream/conv2d/BiasAdd;streaming/stream_1/depthwise_conv2d/depthwise;streaming/stream/conv2d/Conv2D f4 [3]
-0.02985993 0.17306542 0.75442034
00000000: d09c f4bc 1038 313e b121 413f

streaming/batch_normalization_1/FusedBatchNormV3;streaming/stream_1/depthwise_conv2d/depthwise;stream_1/bias;streaming/stream_1/depthwise_conv2d/BiasAdd f4 [1, 5, 1, 3]
-0.7841826 -0.4255712 -0.39582887 -0.69201446 -0.8132814 -0.29795328 -0.47620517 -0.7675241
0.2507327 -0.7558753 0.4015757 -0.76979727 -0.7542385 0.5817761 -2.3826408
00000000: 31c0 48bf 78e4 d9be 15aa cabe dc27 31bf
00000010: 3633 50bf 558d 98be 2ad1 f3be 767c 44bf
00000020: 0960 803e 0b81 41bf 559b cd3e 6f11 45bf
00000030: c615 41bf 47ef 143f 307d 18c0

streaming/batch_normalization_2/FusedBatchNormV3;streaming/stream_2/depthwise_conv2d_1/depthwise;stream_2/bias;streaming/stream_2/depthwise_conv2d_1/BiasAdd f4 [1, 4, 1, 6]
0.7179957 -3.5842898 0.399332 -0.6939362 0.521714 1.5706916 2.914339 5.178492
-1.5051755 1.2301682 -0.51531166 -0.51061326 -2.845673 -1.8051205 -1.3280662 -1.2036697
-0.21001032 -0.6337274 -1.9002291 -3.0082903 -1.1392252 0.61456525 1.2682252 -1.2557746
00000000: 91ce 373f 0165 65c0 3e75 cc3e cea5 31bf
00000010: 0c8f 053f 6c0c c93f 8884 3a40 35b6 a540
00000020: 97a9 c0bf 2776 9d3f 77eb 03bf 8db7 02bf
00000030: 821f 36c0 300e e7bf 13fe a9bf d911 9abf
00000040: f20c 57be f53b 22bf b53a f3bf d487 40c0
00000050: 22d2 91bf 2654 1d3f 3455 a23f 39bd a0bf

streaming/batch_normalization_3/FusedBatchNormV3;streaming/stream_4/depthwise_conv2d_2/depthwise;stream_4/bias;streaming/stream_4/depthwise_conv2d_2/BiasAdd f4 [1, 4, 1, 12]
1.552317 0.30681187 0.7753313 0.016930196 0.83114237 7.670282 1.2982529 1.1737913
-1.4633026 1.3617806 -1.9566398 0.9218056 0.050139617 -1.0714341 0.8286453 -0.7957789
4.5997214 1.5516074 0.74375 -2.4336588 -0.16626765 1.4066304 -1.4544439 0.46087056
-2.4550116 -0.6732959 0.6688865 -1.1639843 3.8299606 0.62210846 1.3805146 -1.4952427
0.08526645 1.5593618 1.1188773 3.1988578 -0.061377015 0.6282849 0.44961977 -0.9688257
0.6403047 5.7332706 0.47074825 -0.77348256 -1.0450699 -0.8101605 0.5413814 0.40718442
00000000: 53b2 c63f 7216 9d3e 1d7c 463f 32b1 8a3c
00000010: bfc5 543f f372 f540 272d a63f cb3e 963f
00000020: 804d bbbf d44e ae3f 2c73 fabf 74fb 6b3f
00000030: 335f 4d3d c124 89bf 1922 543f 2ab8 4bbf
00000040: eb30 9340 129b c63f 6666 3e3f 11c1 1bc0
00000050: 1142 2abe 770c b43f 382b babf 3af7 eb3e
00000060: e91e 1dc0 1f5d 2cbf 253c 2b3f 70fd 94bf
00000070: 131e 7540 8042 1f3f b4b4 b03f 1d64 bfbf
00000080: 2da0 ae3d 2b99 c73f 5f37 8f3f 16ba 4c40
00000090: 7766 7bbd 47d7 203f 9034 e63e f604 78bf
000000a0: 02eb 233f f476 b740 ea05 f13e f402 46bf
000000b0: dac4 85bf ae66 4fbf f997 0a3f 7a7a d03e

streaming/batch_normalization_4/FusedBatchNormV3;streaming/stream_5/depthwise_conv2d_3/depthwise;stream_5/bias;streaming/stream_5/depthwise_conv2d_3/BiasAdd f4 [1, 4, 1, 24]
1.5558119 -0.39709544 3.5745764 3.0727258 1.2608266 0.64008456 -0.5561909 -0.3998759
-0.7621446 1.2548591 -0.9638506 0.75756663 -0.08939278 0.5301033 -2.1863453 1.1686994
1.9328089 0.5710592 0.5935217 -0.37945 0.5463819 -1.110301 -0.6209711 0.20195086
2.0138772 1.9316647 -1.6471614 4.784617 0.6139904 0.45313975 -0.90512645 -0.8392762
-0.5795297 -0.35839164 -0.8685582 0.5743519 -1.0897847 0.24265812 0.8768498 0.61170995
-1.5942279 1.2887707 -0.2041616 0.18254663 0.04778968 1.9750919 -0.55148244 -0.38319227
2.352207 -0.3144013 4.64731 4.593793 0.07466543 0.81617904 -0.8574648 -0.7895832
-1.1607137 0.69706714 -1.1213602 0.9960607 -0.28591827 0.8668417 0.36458415 1.1896973
-1.1286051 0.7941563 0.31501132 -0.50565773 1.6338123 1.5575714 -0.06827319 0.50934875
1.3975853 -0.9419876 4.4783177 0.61327034 0.8095629 0.5495941 -0.7485806 -0.79965186
-1.3326876 0.78988 -1.2150173 0.96415615 -0.3515184 0.06732214 0.10347656 -3.4270258
0.8159071 0.6802133 0.24362233 -0.23526262 1.9131007 1.091526 0.9525232 -0.6997409
00000000: d824 c73f 1850 cbbe dcc5 6440 8aa7 4440
00000010: c462 a13f 95dc 233f 8762 0ebf 89bc ccbe
00000020: e91b 43bf 399f a03f eabe 76bf e3ef 413f
00000030: 9013 b7bd dab4 073f 15ed 0bc0 f197 953f
00000040: 4866 f73f f030 123f 0af1 173f 4547 c2be
00000050: afdf 0b3f 581e 8ebf f6f7 1ebf 35cc 4e3e
00000060: 5de3 0040 ca40 f73f 2fd6 d2bf 951b 9940
00000070: 7a2e 1d3f ef01 e83e 5eb6 67bf ceda 56bf
00000080: 0f5c 14bf 1c7f b7be d559 5ebf ba08 133f
00000090: 117e 8bbf 5f7b 783e 3a79 603f 0699 1c3f
000000a0: a90f ccbf 70f6 a43f bd0f 51be 81ed 3a3e
000000b0: 1dbf 433d d0cf fc3f f42d 0dbf c731 c4be
000000c0: 8f8a 1640 35f9 a0be c3b6 9440 5a00 9340
000000d0: 30ea 983d 1cf1 503f d082 5bbf 2022 4abf
000000e0: 4492 94bf fe72 323f bb88 8fbf d6fd 7e3f
000000f0: e163 92be 56e9 5d3f c6aa ba3e 0048 983f
00000100: 2276 90bf d44d 4b3f 2a49 a13e c972 01bf
00000110: c320 d13f 805e c73f d0d2 8bbd ae64 023f
00000120: 13e4 b23f 1926 71bf 614e 8f40 49ff 1c3f
00000130: 843f 4f3f 33b2 0c3f faa2 3fbf fcb5 4cbf
00000140: 8295 aabf 9335 4a3f b085 9bbf f0d2 763f
00000150: 38fa b3be 31e0 893d 85eb d33d 6454 5bc0
00000160: 4adf 503f 7522 2e3f 2278 793e afe8 70be
00000170: 7ce0 f43f 20b7 8b3f 8fd8 733f 3822 33bf

streaming/stream/conv2d/Conv2D f4 [3, 6, 1, 1]
-4.0215845 1.5866007 3.876986 -0.035708122 -0.71523494 -2.2404246 1.1430699 3.0007684
0.1436635 -1.2309847 -0.4002462 -0.9729694 -0.3169483 1.5585749 -3.1931338 -0.32154286
-2.3597949 -2.4368598
00000000: d2b0 80c0 bb15 cb3f 8a20 7840 ae42 12bd
00000010: a319 37bf 1e63 0fc0 1d50 923f 970c 4040
00000020: 861c 133e e890 9dbf 12ed ccbe 8614 79bf
00000030: 0c47 a2be 627f c73f 4e5c 4cc0 44a1 a4be
00000040: e106 17c0 83f5 1bc0

streaming/dense_1/bias f4 [2]
0.08053901 -0.080538966
00000000: a3f1 a43d 9df1 a4bd

streaming/dense/bias f4 [10]
-0.15690342 0.22642876 -0.09646646 0.09784772 0.2561769 0.008891634 0.12131542 0.17078081
-0.17438754 0.17892508
00000000: 4aab 20be f1dc 673e 3590 c5bd 6364 c83d
00000010: 9e29 833e 37ae 113c 3874 f83d 2ae1 2e3e
00000020: a692 32be 2338 373e

streaming/dense/MatMul f4 [10, 48]
0.049710553 0.18347394 0.15893964 0.28689393 0.03335246 0.032487076 -0.2777565 -0.017613195
-0.12184053 -0.030653656 -0.29712903 -0.07995827 0.19191729 -0.16781606 0.110355206 -0.0148573695
0.032763246 -0.2850554 -0.10731443 -0.32054248 -0.20723447 0.122743465 -0.27979136 -0.036629226
-0.2702447 -0.08432069 0.21360537 0.006817619 -0.28759378 0.4599519 0.2542672 -0.2991235
0.32255763 -0.14738953 -0.0735354 -0.351763 -0.32096693 -0.056945175 -0.093391515 0.037754636
-0.15979151 -0.023210322 -0.08099216 -0.31424657 -0.011135453 0.124526195 0.29386625 -0.06175968
0.25549325 0.2662985 0.3984014 0.12980144 -0.3411958 -0.29267022 -0.27375716 -0.3896296
-0.10019958 0.06794956 0.023551678 0.17648098 -0.12471686 -0.005492908 0.18772878 -0.024857398
0.17341566 0.05651592 0.12956892 0.09476964 0.17021497 0.07682264 0.012683461 0.20949876
0.33603942 -0.06716716 0.11902006 0.23443975 -0.32848567 -0.39586154 -0.51560915 -0.30457404
-0.26441625 0.0383183 -0.28131405 0.06454395 0.22581126 -0.065173626 -0.05691045 0.06353024
0.033447575 -0.018706558 -0.014024202 -0.17338842 0.011786845 0.17883624 0.02671367 0.12794717
-0.033253767 -0.11046958 0.041692358 -0.16242068 -0.108589254 0.42030025 -0.009416149 -0.02224935
-0.40611795 -0.10614551 0.12767942 -0.15737313 -0.04119768 -0.09897305 0.1501044 0.14238699
-0.015599563 -0.04801616 0.0037017174 -0.051712368 -0.033718288 0.03869438 -0.064013936 0.14101072
-0.32399476 0.09232879 -0.17949669 -0.10877846 -0.18389301 -0.03594467 -0.22546749 0.035766874
-0.21347603 -0.2241147 -0.2913823 -0.028120361 0.2941827 -0.1275522 0.19495463 -0.14571406
-0.18252236 0.08809833 -0.2883032 0.17416334 -0.15344425 -0.039280068 -0.1034006 -0.14518926
0.012232247 -0.11927536 0.08044202 -0.08368775 -0.46797413 -0.08260583 -0.3886437 -0.4020259
-0.24915513 0.06683948 -0.20797686 -0.0004851678 0.12587775 -0.2719049 -0.2493549 0.04144259
0.016113486 -0.051658664 -0.02608938 0.19501865 0.0048720012 0.37373915 -0.08634983 0.24557592
0.0106985355 0.14540954 -0.0665853 0.09627424 -0.1712591 -0.12045659 -0.17991018 -0.20770928
0.04058848 0.030399086 -0.28017786 0.09531454 -0.07486552 -0.017380057 0.21861525 0.06710423
0.22316484 0.014706305 -0.05734332 0.21231405 -0.109671816 0.26132578 0.09371039 -0.04887803
0.02388697 0.27563107 -0.13220108 0.3435335 -0.4004869 -0.18413979 -0.20487374 -0.27016714
-0.1548225 -0.0625906 -0.3293095 -0.017092133 -0.26245472 -0.20002893 0.06889809 0.12466174
0.0016045561 0.009635468 -0.24292824 -0.23950094 0.29708752 0.032889627 0.16915902 0.017282262
0.19524856 0.46099636 0.15869881 0.25767428 -0.31590655 -0.29200578 -0.33325097 -0.43576026
-0.1872092 0.20245653 -0.27776334 0.03067112 0.0186341 -0.115745164 -0.05246766 -0.120515995
0.09183655 0.039155353 0.28499314 0.01568393 0.390449 0.12920581 0.044086292 0.3635284
-0.0026153347 -0.07941745 0.007510671 0.048309587 0.0571001 0.103658944 0.032511204 -0.021142174
0.2267452 -0.36489308 0.1132785 -0.29754642 0.15976545 -0.19102262 0.054602977 0.17280874
00000000: 4b9d 4b3d 98e0 3b3e 13c1 223e c3e3 923e
00000010: 979c 083d 2b11 053d 1a36 8ebe 8c49 90bc
00000020: 8787 f9bd 601d fbbc 4c21 98be 29c1 a3bd
00000030: f785 443e f9d7 2bbe e901 e23d 536c 73bc
00000040: c132 063d c8f2 91be abc7 dbbd 251e a4be
00000050: 4635 54be ed60 fb3d d040 8fbe 8708 16bd
00000060: 835d 8abe 53b0 acbd 5ebb 5a3e 5566 df3b
00000070: 7e3f 93be d17e eb3e 4f2f 823e b726 99be
00000080: 4626 a53e 48ed 16be ba99 96bd 481a b4be
00000090: c755 a4be 583f 69bd 0d44 bfbd 9ba4 1a3d
000000a0: 63a0 23be 9323 bebc 38df a5bd ede4 a0be
000000b0: 7a71 36bc 9707 ff3d a375 963e b8f7 7cbd
000000c0: 03d0 823e 4758 883e 45fb cb3e abea 043e
000000d0: 37b1 aebe dfd8 95be e629 8cbe 887d c7be
000000e0: 7035 cdbd 2429 8b3d 73ef c03c 6eb7 343e
000000f0: 8e6b ffbd dafd b3bb f93b 403e bea1 cbbc
00000100: e093 313e 3d7d 673d b7ad 043e 9616 c23d
00000110: d54c 2e3e 3055 9d3d 4bce 4f3c d886 563e
00000120: 5c0d ac3e f08e 89bd cac0 f33d f910 703e
00000130: 462f a8be 5dae cabe f6fe 03bf 21f1 9bbe
00000140: 9161 87be a6f3 1c3d 6508 90be 9e2f 843d
00000150: 113b 673e c079 85bd ef1a 69bd 241c 823d
00000160: 5300 093d 7f3e 99bc c4c5 65bc bc8c 31be
00000170: 9c1d 413c d920 373e a0d6 da3c 9504 033e
00000180: 1a35 08bd e03d e2bd 9bc5 2a3d 9b51 26be
00000190: 0b64 debd 9831 d73e 3146 1abc 4544 b6bc
000001a0: b1ee cfbe d162 d9bd 65be 023e 6c26 21be
000001b0: e6be 28bd 62b2 cabd f8b4 193e e5cd 113e
000001c0: 4f95 7fbc 98ac 44bd 8398 723b 59d0 53bd
000001d0: 301c 0abd 007e 1e3d bd19 83bd 1d65 103e
000001e0: a4e2 a5be e016 bd3d fbcd 37be 3ec7 debd
000001f0: 734e 3cbe b83a 13bd f3e0 66be 4980 123d
00000200: 7699 5abe 537e 65be 1030 95be ac5c e6bc
00000210: 1d9f 963e 0b9d 02be 30a2 473e 1136 15be
00000220: 24e7 3abe e66c b43d 7a9c 93be e057 323e
00000230: 7d20 1dbe 23e4 20bd b2c3 d3bd 7eac 14be
00000240: c369 483c a446 f4bd c9be a43d 7c64 abbd
00000250: 4e9a efbe 3f2d a9bd 4ffc c6be 57d6 cdbe
00000260: 8622 7fbe 23e3 883d e3f7 54be 1f5e feb9
00000270: 19e6 003e 1e37 8bbe e456 7fbe b5bf 293d
00000280: 6e00 843c 0998 53bd 65b9 d5bc f8b2 473e
00000290: 4fa5 9f3b bd5a bf3e 2ed8 b0bd 4178 7b3e
000002a0: e948 2f3c 3de6 143e e05d 88bd 6e2b c53d
000002b0: 8c5e 2fbe f2b1 f6bd 603a 38be beb1 54be
000002c0: 1b40 263d 8107 f93c 7973 8fbe 4534 c33d
000002d0: 1853 99bd 9f60 8ebc addc 5f3e f16d 893d
000002e0: 5385 643e b7f2 703c d4e0 6abd db68 593e
000002f0: 9e9b e0bd 7ecc 853e 3ceb bf3d 5434 48bd
00000300: 9bae c33c 841f 8d3e b85f 07be 9fe3 af3e
00000310: 9e0c cdbe 248f 3cbe 6cca 51be 5953 8abe
00000320: ca89 1ebe 802f 80bd 419b a8be cd04 8cbc
00000330: 7760 86be 62d4 4cbe 711a 8d3d a84e ff3d
00000340: f84f d23a 15de 1d3c 2ec2 78be bc3f 75be
00000350: db1b 983e 46b7 063d 0638 2d3e 8893 8d3c
00000360: 3def 473e b707 ec3e f181 223e e2ed 833e
00000370: 81be a1be c881 95be df9f aabe f81b dfbe
00000380: c5b3 3fbe c450 4f3e ff36 8ebe 0042 fb3c
00000390: 8aa6 983c cd0b edbd 54e8 56bd 17d1 f6bd
000003a0: cd14 bc3d 5d61 203d 9fea 913e 967b 803c
000003b0: eee8 c73e 874e 043e d493 343d 6520 ba3e
000003c0: 0966 2bbb 9ea5 a2bd 131c f63b 46e0 453d
000003d0: cbe1 693d 244b d43d 782a 053d 5a32 adbc
000003e0: e52f 683e 44d3 babe 8ffe e73d 0158 98be
000003f0: 8e99 233e 6f9b 43be 5fa7 5f3d c6f4 303e

streaming/dense_1/MatMul f4 [2, 10]
-0.2190771 0.47442773 0.4150843 0.52574885 0.5622716 -0.3049359 -0.1846127 -0.77878296
0.3849628 0.60803896 -0.06415726 -0.18059058 0.5879059 0.029599773 0.05637141 0.36154366
0.112307385 -0.46461254 0.39142412 0.13660868
00000000: bf55 60be 31e8 f23e ee85 d43e 7a97 063f
00000010: 08f1 0f3f 8f20 9cbe 1d0b 3dbe 525e 47bf
00000020: d819 c53e 71a8 1b3f e264 83bd bdec 38be
00000030: 0081 163f 397b f23c b5e5 663d 401c b93e
00000040: 6a01 e63d b2e1 edbe be68 c83e 25e3 0b3e
