train_tinyml/results/test_epoch1/tflite_stream_state_external/stream_state_external.tflite (tflite, 13464 bytes, 14 tensors)

streaming/activation_1/Relu;streaming/batch_normalization_1/FusedBatchNormV3;streaming/stream_1/depthwise_conv2d/depthwise;stream_1/bias;streaming/stream_1/depthwise_conv2d/BiasAdd f4 [3]
000000 5f 69 0c 3f 6a 2a 21 3f 2d 36 fd be
       0.54848284 0.62955344 -0.49455395

streaming/activation_2/Relu;streaming/batch_normalization_2/FusedBatchNormV3;streaming/stream_2/depthwise_conv2d_1/depthwise;stream_2/bias;streaming/stream_2/depthwise_conv2d_1/BiasAdd f4 [6]
000000 f3 d5 db 3f 84 97 14 40 e6 cf 77 3f 54 40 c4 bf
       1.7174667 2.3217478 0.968016 -1.5332131
000010 53 56 cc be 86 a0 54 bf
       -0.3990961 -0.8305744

streaming/activation_3/Relu;streaming/batch_normalization_3/FusedBatchNormV3;streaming/stream_4/depthwise_conv2d_2/depthwise;stream_4/bias;streaming/stream_4/depthwise_conv2d_2/BiasAdd f4 [12]
000000 d3 45 8d bf 1b c1 68 bf 58 a4 a0 3d d0 5a d6 3c
       -1.1036934 -0.90919656 0.07843846 0.02616635
000010 f5 76 67 3f 62 ec d1 bf 6b 57 23 be b6 52 4a 3f
       0.9041589 -1.6400263 -0.15951316 0.79032457
000020 87 80 c8 3e 2c d8 66 3f bc 3e 34 be 6c 1d 90 be
       0.3916056 0.901736 -0.17602056 -0.28147447

streaming/activation_4/Relu;streaming/batch_normalization_4/FusedBatchNormV3;streaming/stream_5/depthwise_conv2d_3/depthwise;stream_5/bias;streaming/stream_5/depthwise_conv2d_3/BiasAdd f4 [24]
000000 a4 cd d2 3e 88 86 19 3f 4d bf 64 3e a2 17 65 bf
       0.41172516 0.59970903 0.223386 -0.89489186
000010 db c6 06 c0 50 a4 5f 3f e8 7c 08 bf 12 b5 0d bf
       -2.1058872 0.87360096 -0.5331559 -0.55354416
000020 06 0a a1 3f c7 cf 9e 3f 70 4c 33 bf 4f f2 4b bf
       1.2581184 1.2407159 -0.7003851 -0.7966661
000030 f0 ee e3 3f ef 70 8a 3f 39 26 8a bf f1 8d 8b 3f
       1.7807293 1.0815715 -1.0792915 1.0902692
000040 6b 64 02 c0 6b 6a f2 3f 0c 64 b9 3f ca b5 c0 3f
       -2.037379 1.8938726 1.4483657 1.5055478
000050 ca 72 39 be 84 8e 2f 3e 90 38 0a 3b fa 42 20 3e
       -0.18110195 0.17144209 0.0021090843 0.1565055

streaming/activation/Relu;streaming/batch_normalization/FusedBatchNormV3;stream/bias;streaming/stream/conv2d/BiasAdd;streaming/stream_1/depthwise_conv2d/depthwise;streaming/stream/conv2d/Conv2D f4 [3]
000000 67 78 c8 3d 00 26 17 bb b8 ff 84 3f
       0.0978859 -0.0023063421 1.0390539

streaming/batch_normalization_1/FusedBatchNormV3;streaming/stream_1/depthwise_conv2d/depthwise;stream_1/bias;streaming/stream_1/depthwise_conv2d/BiasAdd f4 [1, 5, 1, 3]
000000 2e 93 c1 bd 35 87 a0 bf 03 ed 0a 40 04 d2 2d bf
       -0.094519004 -1.2541262 2.170716 -0.67898583
000010 46 e1 5c bf bb a3 17 c0 8e f6 1a bf 78 5d 01 3f
       -0.8628124 -2.3693683 -0.6053246 0.50533247
000020 12 19 08 c0 7a 1a e3 3c 39 5a 87 bf 5b 30 bd 3f
       -2.1265302 0.027722586 -1.0574409 1.4780382
000030 ac 04 fe 3d 6a 60 9b bf 3f de e8 3f
       0.12403235 -1.2138798 1.8192824

streaming/batch_normalization_2/FusedBatchNormV3;streaming/stream_2/depthwise_conv2d_1/depthwise;stream_2/bias;streaming/stream_2/depthwise_conv2d_1/BiasAdd f4 [1, 4, 1, 6]
000000 af a4 4d 3f c9 7f 3b c0 70 94 44 3e 31 73 0b bf
       0.8032941 -2.9296744 0.1919725 -0.54472643
000010 74 e8 46 be d2 da da 3d de 1b 73 c0 4e 1f 80 3e
       -0.19424611 0.10686268 -3.7985759 0.25023884
000020 ce c1 84 3e 45 2b 44 3f 91 78 8b be e2 7c cd 3e
       0.2592911 0.76628524 -0.27240422 0.4013434
000030 d6 18 97 3f 8f 7f 07 c0 7b cc 35 c0 fb 00 a6 3f
       1.1804454 -2.1171606 -2.8406055 1.2969049
000040 48 4f b6 be c1 c6 fe 3f 2b ba 09 c0 10 fe cd be
       -0.35607362 1.9904405 -2.1519878 -0.40232897
000050 59 15 e1 3d 0f 39 98 3f e6 e2 9e 3f a4 c5 dc 3d
       0.109904 1.1892413 1.2412994 0.107798845

streaming/batch_normalization_3/FusedBatchNormV3;streaming/stream_4/depthwise_conv2d_2/depthwise;stream_4/bias;streaming/stream_4/depthwise_conv2d_2/BiasAdd f4 [1, 4, 1, 12]
000000 61 a5 45 3f c0 23 37 3f 86 17 e7 3e 2c d4 48 bf
       0.77205473 0.71538925 0.45135134 -0.7844875
000010 95 ce c2 bf 38 93 38 3f 9b 7c c5 3f 8a 62 06 bf
       -1.5219294 0.7209964 1.5428652 -0.5249411
000020 76 fb 4e c0 df 0e 5b c0 e3 05 1b 40 09 52 15 bf
       -3.234098 -3.4227827 2.4222343 -0.583283
000030 56 8a 2c 3f 7e 86 69 3f 7b a5 37 3e be 65 d4 3e
       0.67398584 0.91220844 0.1793422 0.41483873
000040 84 14 ed 3d 06 1d ba 3f f7 43 cc 3f 6b 88 57 c0
       0.11576179 1.4540107 1.5958241 -3.3677013
000050 a7 47 fa 3e 2a 93 17 be cc 3d d4 be 3a 2b 25 3f
       0.4888279 -0.14802232 -0.41453397 0.64519083
000060 62 1a 6d 3f 9e a1 25 3f 56 73 95 3d 38 83 a2 3e
       0.9261838 0.64699733 0.07297389 0.31740737
000070 06 5a 77 3e 63 a0 da 3f 72 ac d6 3f 77 46 83 c0
       0.24155435 1.7080196 1.6771376 -4.1023517
000080 61 aa 50 3f 02 8e 5d be ea ca ee be 94 89 ba be
       0.8150998 -0.21636203 -0.46639186 -0.3643309
000090 04 53 36 3f 53 2b d2 3e 49 ad b6 3e fa e5 82 bf
       0.7122042 0.4104868 0.3567908 -1.0226433
0000a0 99 09 d8 bf 58 e3 41 3f 06 b4 a4 3f 7a eb 00 c0
       -1.6877929 0.75737524 1.2867439 -2.0143723
0000b0 9b 88 17 c0 6b 71 63 c0 dc f1 28 bd a0 76 b4 3f
       -2.3677127 -3.5537975 -0.04124628 1.4098701

streaming/batch_normalization_4/FusedBatchNormV3;streaming/stream_5/depthwise_conv2d_3/depthwise;stream_5/bias;streaming/stream_5/depthwise_conv2d_3/BiasAdd f4 [1, 4, 1, 24]
000000 6e cd 93 bf 6f 6a 1f 3e 18 c6 7f 3f a7 8f 14 3f
       -1.1547067 0.15567945 0.9991164 0.58031696
000010 af 5a 92 3f e0 1a 14 bc 11 88 74 40 f5 6a 91 40
       1.1433924 -0.009039611 3.8208048 4.5443063
000020 58 0a 3c bf 46 5c 11 bf f3 55 91 3e 85 88 2a 3f
       -0.73453283 -0.56781423 0.28385887 0.6661456
000030 d3 e6 c5 bf 63 14 e9 be c7 ef ae 3f 4d c3 3b bf
       -1.5461067 -0.45523366 1.3666924 -0.7334488
000040 db cf d2 3f d7 f7 03 c0 ac 9b 61 bf 14 46 82 bf
       1.6469682 -2.062002 -0.8812816 -1.0177636
000050 cf c4 02 3f f9 c8 fd 3e 9f 85 11 bf 30 16 74 3f
       0.51081556 0.49567392 -0.56844515 0.95346355
000060 09 2f 08 3f 91 56 71 bf ba 93 17 bf 10 20 9a 3e
       0.5319677 -0.94272715 -0.5920979 0.30102587
000070 57 42 97 3f 5e f8 24 c0 41 14 cc 40 65 5b bc 40
       1.181712 -2.5776591 6.3774724 5.8861566
000080 43 35 94 bf 59 8e a2 bf 58 0c 98 3e aa e3 60 3e
       -1.1578754 -1.2699691 0.29696918 0.21961847
000090 3b 74 a5 bf 84 d4 95 bf 01 b1 6d 3f 75 aa df bf
       -1.2926096 -1.170548 0.9284821 -1.7473894
0000a0 64 4c 35 40 a6 9a d1 bf 0c 0a 93 bf 7f 04 7f bf
       2.8327875 -1.637532 -1.1487441 -0.99616235
0000b0 01 fe 1a 3f 0f e2 15 bf 22 c0 79 bf b5 5e 4c bf
       0.6054383 -0.58548063 -0.97558796 -0.7983201
0000c0 bf 90 93 3e 89 d3 b9 3e ea ea dc bf 18 77 01 3f
       0.2882137 0.362942 -1.725919 0.5057235
0000d0 e7 68 5d 3f ea 84 4b 3e 71 ce d1 40 69 05 d0 40
       0.86488193 0.19874921 6.5564504 6.5006604
0000e0 4f a5 80 bf f6 ce 56 bf 34 d0 08 3f 61 51 0a 3f
       -1.0050448 -0.8390955 0.5344269 0.54030424
0000f0 ea a9 29 be 4f 32 89 bf 5c f0 ba 3f a7 3e 59 bf
       -0.16568723 -1.0718478 1.4604602 -0.84861225
000100 1d 52 24 40 92 2e 11 c0 8f fe 82 bf 53 ee 92 bf
       2.5675118 -2.2684674 -1.0233935 -1.1478981
000110 5c ca f1 3e 66 3c 0f bf 0e 31 94 3e 4e c8 c7 bd
       0.472247 -0.55951536 0.28943676 -0.09755002
000120 bb 54 69 bf a9 29 88 bf 07 33 6d 3e 43 e5 eb 3e
       -0.91144913 -1.0637714 0.23163997 0.4607335
000130 41 10 69 3f b8 fd ce 3e e4 0a 90 40 88 03 aa 40
       0.91040426 0.40427947 4.5013294 5.312931
000140 be 97 5c bf b3 b8 85 bf 03 6e 0e 3f c6 9d 81 3e
       -0.8616904 -1.0446991 0.55636615 0.25315684
000150 d0 80 c3 bf ab b4 29 3d 64 50 cf 3f cd 57 b9 bf
       -1.5273685 0.041432064 1.6196408 -1.447992
000160 84 7a aa 3f ea 5a 90 bf 9e b2 67 bf 0f 6f 7e bf
       1.3318639 -1.1277745 -0.90506923 -0.9938821
000170 ea c3 c3 bf a1 f0 0f bf 5d db 66 3f 8e 89 98 bf
       -1.5294163 -0.56226546 0.9017847 -1.1916978

streaming/stream/conv2d/Conv2D f4 [3, 6, 1, 1]
000000 e7 1d 3c c0 50 81 4c 40 cd 15 47 40 ff 2e 8b c0
       -2.939325 3.1953926 3.1107056 -4.349487
000010 b9 af 92 bf 17 8c 10 3e 02 82 37 40 c8 43 0b 3f
       -1.1459876 0.1411594 2.86731 0.544003
000020 f7 5a d4 bd d3 f8 04 be 37 0e 1e c0 37 c3 32 c0
       -0.10368913 -0.12985544 -2.4696176 -2.793165
000030 ec 29 c4 bf fa 38 f3 bf 97 07 16 c0 db 31 be bf
       -1.5325294 -1.9001763 -2.3442132 -1.4858965
000040 d6 4c 82 bf 2d 4f d1 bf
       -1.0179698 -1.6352288

streaming/dense_1/bias f4 [2]
000000 33 81 f9 3d 35 81 f9 bd
       0.12182846 -0.121828474

streaming/dense/bias f4 [10]
000000 dd 9c 85 3e e1 f3 73 3e b7 7b b9 3d a4 2d b2 3e
       0.2609624 0.23823501 0.090568 0.34800446
000010 38 f6 1c 3e 74 a2 2d 3e f5 5d 32 be c2 52 9a 3e
       0.153283 0.16956502 -0.17418654 0.30141264
000020 67 5b 86 3b e4 1b da 3d
       0.0041002515 0.10649851

streaming/dense/MatMul f4 [10, 48]
000000 49 d5 98 3e 8f 31 0a be f3 ff 65 3e 21 91 8d be
       0.29850224 -0.13495468 0.22460918 -0.27649787
000010 6d 67 c4 be b6 1f 9f 3d dd 23 d0 3e 42 41 92 bd
       -0.38360158 0.0776972 0.40652362 -0.07141353
000020 df 2b 88 3d ad 26 02 be 0e f7 3c bd 7f 28 13 be
       0.06648993 -0.12710066 -0.046134047 -0.14370917
000030 fb 3c 71 bd f8 ad a6 bc 02 de c8 bd ae 05 1f 3e
       -0.058896046 -0.020346627 -0.0980797 0.1552951
000040 99 38 2e bc dd a6 ad be 97 86 9e be 1b 08 fa be
       -0.010633611 -0.3391637 -0.3096206 -0.4883431
000050 e3 3c 11 be 63 47 d9 3d 37 e9 80 bc 21 01 85 3e
       -0.14183383 0.10609319 -0.015736206 0.25977424
000060 f4 27 7c 3d 2d b4 ab 3d ef 97 89 bd 26 78 2c be
       0.06156154 0.08383975 -0.06718432 -0.16842708
000070 03 33 e2 bd 1e c6 91 3c e1 79 e7 3d ba 39 58 be
       -0.11044886 0.017794665 0.113025434 -0.21115771
000080 9b a0 25 be 4c 28 97 3c 39 58 05 be b7 e6 a2 be
       -0.16174547 0.018451832 -0.13021936 -0.31816646
000090 d6 2c e5 3d 2d 91 4d 3e b7 2c 52 3e bd 1f b3 bd
       0.111901924 0.20074911 0.2052487 -0.08746288
0000a0 c8 a2 33 bd be 67 34 3b 63 01 04 bf fc de 13 be
       -0.043856412 0.0027527655 -0.51564616 -0.1444053
0000b0 c4 cc 6d 3e a6 0a 38 be 40 8c 67 3c 9d d0 2e be
       0.23222643 -0.17972812 0.014132559 -0.17071767
0000c0 98 a7 b6 3d c4 16 ba bd 18 d2 88 3d cb 67 bc 3d
       0.08918685 -0.090863734 0.06680697 0.091994844
0000d0 c2 d9 77 be 48 98 9a 3e d7 9e a2 3d 24 46 78 3e
       -0.24204162 0.30194306 0.079404525 0.24245507
0000e0 a8 37 74 be be 87 51 bc 0c aa ed bd 3a 22 84 be
       -0.23849356 -0.012788711 -0.116046995 -0.25807363
0000f0 f2 e9 4d bd 6c 33 60 be a4 43 f1 bd 39 9a 8e bd
       -0.050271936 -0.21894616 -0.117804796 -0.069630094
000100 82 25 54 3e 8a 18 8b bd 38 66 89 be f2 8b 54 be
       0.20717433 -0.0679179 -0.268358 -0.2075651
000110 a0 0a 40 3d 56 0e 9c bd 31 fc 85 bc ab ef 78 be
       0.046885133 -0.07619922 -0.016355606 -0.24310176
000120 84 4a da 3e ff d1 25 3e e1 e5 c2 3e 38 73 09 be
       0.42634976 0.16193388 0.3806601 -0.13422859
000130 02 09 60 bd 2e b6 61 3d 0e b2 ae 3e 75 bc a6 3e
       -0.05469609 0.05510538 0.3412022 0.32565656
000140 10 92 80 be cf 9c e4 be 5a 74 c3 bd 9e 3d 5e be
       -0.25111437 -0.44650885 -0.09543677 -0.21703193
000150 02 b4 62 be 9e 39 16 be 0c b6 a1 be 42 84 2e 3e
       -0.2213898 -0.14670417 -0.31584203 0.1704264
000160 c5 dc 94 3e a2 f8 7e be a9 3f 0e 3c 6c e8 3c bd
       0.29074684 -0.24899533 0.00868217 -0.046120092
000170 29 e4 1b 3e b0 9a 90 3e 1b 6f d0 3e 2b e5 97 3e
       0.15223755 0.28243017 0.40709767 0.2966703
000180 3f 01 aa be 52 cf a2 be 24 43 9c 3d 37 8a a4 3e
       -0.33204076 -0.31798798 0.076299936 0.321367
000190 0d 69 73 3e 81 fe 6f be 34 5d 9b 3d 22 a8 cc 3d
       0.23770542 -0.2343693 0.075861365 0.09993006
0001a0 cb 76 1d be 79 03 09 3e 59 3b 8a bd 42 ec 92 3e
       -0.15377347 0.13380231 -0.06749601 0.28695875
0001b0 99 7f aa 3e 07 8d cb 3e af 95 72 3e 4e ae 95 be
       0.33300474 0.39756033 0.23689912 -0.29234546
0001c0 77 8a 47 3e 7f 24 49 be d4 6c 8e 3e 33 d2 8a be
       0.19486414 -0.19642828 0.27817404 -0.27113494
0001d0 eb 6e 26 3e 98 aa 9a b9 37 60 92 bc 2d c0 b1 3b
       0.1625325 -0.0002950027 -0.017868144 0.0054245205
0001e0 69 31 f5 bb 2c 3e 5d be f5 1a ac 3d 1c eb ff 3e
       -0.007482697 -0.21605748 0.08403579 0.49984062
0001f0 33 df 10 bd 32 59 95 bd 96 06 dd bd 20 ce aa bd
       -0.03536911 -0.07292403 -0.10792272 -0.083400965
000200 e3 e5 f2 bc 11 07 8c bd 2a 5d 6e 3e 3c bb da 3d
       -0.029650634 -0.06837285 0.23277727 0.106802434
000210 19 f0 30 3e 54 56 6a 3e 7d 33 1d 3d c7 91 b4 be
       0.1727909 0.22884494 0.03837918 -0.3526747
000220 60 20 9c 3e 89 ee ff bd 55 71 39 3e 8a 9c 8a be
       0.3049345 -0.12496669 0.18109639 -0.27072555
000230 f8 f1 84 3e 2e 81 63 bd 50 4b 54 bd 47 e7 92 bc
       0.25965858 -0.055543117 -0.051829636 -0.017932547
000240 6b 1c 45 bd 2f cd 26 3e f0 e4 4b 3e 31 cb bf be
       -0.048122805 0.16289209 0.19911551 -0.3745971
000250 21 2b bc be 50 76 8b 3e 8c 7b 1c be 9b c3 9b 3e
       -0.36751655 0.27238703 -0.15281504 0.30422673
000260 68 bd c8 be 3a c6 a1 be 3f b8 1c be 5e 27 91 be
       -0.39207006 -0.31596547 -0.1530466 -0.28350347
000270 7f ce f5 3d 00 f5 bd bc 8c 94 98 bc 6c 50 7e 3e
       0.12002277 -0.023188114 -0.01862552 0.24835366
000280 23 be b1 3e ed c0 a5 bd a5 fc 18 be 20 07 62 be
       0.34715375 -0.08093438 -0.14940126 -0.2207303
000290 e8 b6 50 3e 56 95 af 3e 43 f5 28 be a2 b1 82 3e
       0.20382273 0.34293622 -0.1649981 0.25526148
0002a0 8a 41 09 3d 94 9e d3 3d 24 f6 23 be 44 7a 1f be
       0.03350977 0.10332981 -0.16011864 -0.15573984
0002b0 f3 90 fa bd ea 3a 53 3d 1c e2 14 3e 57 4b 63 3e
       -0.12234678 0.051569857 0.14539379 0.22196709
0002c0 73 82 68 be cd 07 95 be af 82 e8 be ed aa f1 be
       -0.22706012 -0.29107514 -0.45412204 -0.4720072
0002d0 db 3f 12 be be 34 ca bd 93 a7 e4 bd da 6e 6d 3e
       -0.14282171 -0.09873341 -0.11164775 0.23186818
0002e0 91 3a df 3e a2 a4 e5 be ad 29 b0 be be 0a d9 be
       0.4359937 -0.44852167 -0.34406796 -0.42391008
0002f0 5c 39 85 3e d4 5b 0d 3e 1d 01 7e bd fa 08 3a 3e
       0.26020324 0.13804561 -0.06201278 0.18167487
000300 0b 38 c7 bd 23 c0 53 3e 1a 13 d5 3d 05 33 81 3e
       -0.09727486 0.20678763 0.10404034 0.25234237
000310 f7 61 8c 3d 90 59 3f be 80 7e 8f bd ad 84 3d be
       0.06854623 -0.18686509 -0.0700655 -0.18507643
000320 fc ef 14 3e 94 52 7a 3d 8f 40 b9 3e df e5 da 3d
       0.14544672 0.06111391 0.36182067 0.10688376
000330 2e e2 02 3f 7b c3 e9 3d c3 3c 02 3e 4c 9d aa 3d
       0.5112637 0.11414238 0.12718491 0.08330783
000340 c1 6d 7e 3e 8b 04 b5 3d 8d fa b8 3d fa eb 8f 3e
       0.24846555 0.08838757 0.09032164 0.28109723
000350 63 91 5b bd 55 1e 23 be 61 77 2c 3e b6 de 5c 3e
       -0.05360545 -0.1592954 0.16842414 0.21569332
000360 3a be 5e bd 49 b7 03 bd ed 07 c8 bd 6d 31 81 bd
       -0.054380633 -0.032157216 -0.09767137 -0.06308255
000370 ef 2c d5 3e 5f b8 7b be 92 de b1 be bb 42 08 be
       0.41635844 -0.2458205 -0.3474012 -0.13306706
000380 b3 41 21 3e 95 b8 6c 3e 98 71 49 3e 34 19 bf 3d
       0.15747719 0.23117287 0.19672239 0.09330979
000390 5d 88 f2 3e 56 91 b5 3e 54 33 d5 3e 65 d3 6f be
       0.47369662 0.35462445 0.41640723 -0.23420484
0003a0 a9 77 06 3e 40 af 32 3e 55 73 b6 3c 4e d6 83 3e
       0.13131584 0.17449665 0.022271791 0.2574944
0003b0 ae 83 3a be e1 04 8e 3e ba 5f 14 bd e6 a5 36 39
       -0.18214294 0.27738097 -0.036224104 0.00017418675
0003c0 0a f8 94 3d bd 0b 11 bd 96 bc 2e bc 12 c4 ad be
       0.07273872 -0.035411585 -0.01066508 -0.33938652
0003d0 98 d7 3c 3d 1c 88 81 bc 7b 7b d3 3e cd 03 e6 be
       0.046104044 -0.015811972 0.41305146 -0.44924775
0003e0 5e 20 22 3e e4 fb c9 3b 39 d4 5d be 46 89 87 be
       0.1583266 0.006164061 -0.21662988 -0.2647192
0003f0 e7 ee 56 bd 17 0a 98 be e5 39 ae be 37 a8 10 3c
       -0.05247393 -0.29695198 -0.34028545 0.008829168

streaming/dense_1/MatMul f4 [2, 10]
000000 c7 e9 e0 be 86 b8 32 3f b4 62 17 bf be ef 39 3f
       -0.43928358 0.6981281 -0.59134984 0.7263144
000010 1f 67 31 bf 2e c2 81 3d 68 97 4d be fe b2 74 3e
       -0.69297975 0.06335865 -0.20077288 0.23896405
000020 6c 5c c5 be 87 79 f4 bd 9b d3 24 bf b3 f3 f0 3e
       -0.38547075 -0.11937242 -0.64385384 0.47060928
000030 11 50 6d be 78 93 34 3e 72 40 d2 be 7d 47 8d be
       -0.23175074 0.1763438 -0.41064793 -0.27593604
000040 82 b7 8e 3d d0 ec a6 be c0 ab 4e be 4c cb 88 3d
       0.06968595 -0.3260255 -0.20182705 0.06679401
