train_tinyml/results/test/tflite_non_stream/non_stream.tflite (tflite, 9016 bytes, 14 tensors)

streaming/dense_1/bias f4 [2]
00000000: 0def 2ebe 11ef 2e3e
-0.17083378 0.17083384

streaming/dense/bias f4 [10]
00000000: cb53 e1bd b875 f8bd 9f67 4ebe 58f5 553e
00000010: b3fb 32bd f55c 983e b970 24be 4719 a1bd
00000020: 9570 12be 40b9 283e
-0.1100231 -0.12131828 -0.20156716 0.20894372 -0.04369707 0.2975842 -0.16058625 -0.078661494
-0.14300759 0.16476917

streaming/activation/Relu;streaming/batch_normalization/FusedBatchNormV3;stream/bias;streaming/stream/conv2d/BiasAdd;streaming/stream_1/depthwise_conv2d/depthwise;streaming/stream/conv2d/Conv2D f4 [3]
00000000: ccee ff3d 4412 f1be fb71 0bbe
0.12496719 -0.47084248 -0.13617699

streaming/activation_1/Relu;streaming/batch_normalization_1/FusedBatchNormV3;streaming/stream_1/depthwise_conv2d/depthwise;streaming/stream_1/depthwise_conv2d/BiasAdd;stream_1/bias f4 [3]
00000000: 6199 553f d7e2 e63e 903e e73c
0.8343716 0.4509494 0.028228074

streaming/batch_normalization_1/FusedBatchNormV3;streaming/stream_1/depthwise_conv2d/depthwise;streaming/stream_1/depthwise_conv2d/BiasAdd;stream_1/bias f4 [1, 5, 1, 3]
00000000: 0bda d4be aea8 eebe 8f68 2d3f ebed 3cbf
00000010: 8f08 d6be 9cfe 213f 87e3 88bf 28eb dcbe
00000020: 62a3 c23b a4e9 6ebf 80f6 073f 47f6 92be
00000030: 98aa 0abf 8543 66bf a8c5 24bf
-0.41572604 -0.46613067 0.6773767 -0.73800534 -0.41803405 0.6327913 -1.0694436 -0.4314816
0.005939887 -0.9332526 0.53110504 -0.2870352 -0.54166555 -0.89946777 -0.643641

streaming/activation_2/Relu;streaming/batch_normalization_2/FusedBatchNormV3;streaming/stream_2/depthwise_conv2d_1/depthwise;streaming/stream_2/depthwise_conv2d_1/BiasAdd;stream_2/bias f4 [6]
00000000: 019c 70bf d066 123f 5d14 cd3e b6d4 633f
00000010: 0a39 393f 78ff 9abc
-0.93988043 0.5718813 0.40054598 0.88996446 0.7235266 -0.018920645

streaming/batch_normalization_2/FusedBatchNormV3;streaming/stream_2/depthwise_conv2d_1/depthwise;streaming/stream_2/depthwise_conv2d_1/BiasAdd;stream_2/bias f4 [1, 4, 1, 6]
00000000: bf79 283d 717b ff3f 4cd8 79be 2c4b c7bf
00000010: f868 10bf 363a 403e c9ae 81be f887 fdbf
00000020: 040d e3bf ce52 8fbf 2ca4 12bf 1ec0 d4be
00000030: 0562 3140 d61f 08bf 66d2 9f3f 7f06 af3f
00000040: 50f6 81bf 00f7 3bbf 08fc fc3d fab1 f9be
00000050: 5c98 013c 74ac aebf 5048 0cbf 6179 973f
0.04113173 1.9959546 -0.24398917 -1.5569816 -0.5641017 0.18772206 -0.25328663 -1.9807119
-1.7738347 -1.1197145 -0.57281756 -0.41552824 2.7716076 -0.5317358 1.2486084 1.3673857
-1.0153294 -0.7342377 0.12352759 -0.48768598 0.00790986 -1.3646379 -0.5479784 1.1833917

streaming/activation_3/Relu;streaming/batch_normalization_3/FusedBatchNormV3;streaming/stream_4/depthwise_conv2d_2/depthwise;streaming/stream_4/depthwise_conv2d_2/BiasAdd;stream_4/bias f4 [12]
00000000: f099 7dbf b271 11bf 3841 22be ca4d 2f3e
00000010: 5843 13be 9136 853f 8c40 8a3f 74cc 9bbf
00000020: 92eb 89be 0024 853f f65e 69bd 6cb4 403f
-0.99063015 -0.5681411 -0.15845191 0.17119518 -0.14381158 1.0407277 1.0800948 -1.2171769
-0.26937538 1.0401611 -0.056975327 0.752753

streaming/batch_normalization_3/FusedBatchNormV3;streaming/stream_4/depthwise_conv2d_2/depthwise;streaming/stream_4/depthwise_conv2d_2/BiasAdd;stream_4/bias f4 [1, 4, 1, 12]
00000000: a175 2f40 d1b7 a1bf 99e4 873f 8ae5 7ebe
00000010: 4e81 803e 5b9d a63f faf3 cf3e d138 81be
00000020: 68c2 00c0 1613 32bf d39b 0abe 456a bbbd
00000030: bdf1 ac3d 212f 4940 09a4 67bf f206 433f
00000040: fc2f f6bf 3f81 58c0 107e 67bf dd94 463e
00000050: a964 3840 886a 29c0 084d 36bf 2ee3 a1bf
00000060: 464f 7b3f 8dc2 3440 a346 9dbf b3a2 4dbf
00000070: 9c34 5140 9571 09bf 13b9 bebd dd47 e13f
00000080: 2b7c e63f 30fd 0ec0 3cf8 273f cfe9 f5bf
00000090: 5f03 3e40 140e 37bd e49e 443f 5929 89bf
000000a0: 57af a6bf a93b 59bf 9278 2fc0 209e f43f
000000b0: ae82 08c0 e633 ac3f 763e 5cbf 51db 993f
2.7415545 -1.2634221 1.0616637 -0.2489225 0.25098652 1.3016771 0.40615827 -0.2523866
-2.0118656 -0.6956037 -0.13536005 -0.09151129 0.084445454 3.1435015 -0.9048467 0.7618247
-1.9233394 -3.3828886 -0.9042673 0.19392724 2.8811438 -2.6471272 -0.7121129 -1.2647455
0.98167837 2.8243744 -1.2287182 -0.80326384 3.268836 -0.5368894 -0.09312644 1.7600056
1.8006643 -2.2342033 0.6561315 -1.9211978 2.9689558 -0.04469116 0.7680495 -1.0715743
-1.302226 -0.8485666 -2.741734 1.9110756 -2.132976 1.3453338 -0.8603281 1.2020055

streaming/activation_4/Relu;streaming/batch_normalization_4/FusedBatchNormV3;streaming/stream_5/depthwise_conv2d_3/depthwise;streaming/stream_5/depthwise_conv2d_3/BiasAdd;stream_5/bias f4 [24]
00000000: b0ce 5dbf 67c9 1bbf fefb 803f be68 5abf
00000010: 5c6d 6fbf 06c0 65bf e44c 16bf 7cf8 13bf
00000020: f4c8 c73e 9517 c6bd 2d12 50bf c2db 913f
00000030: f7ff 3e3f 500a 053f 97d1 fb3e 71bf 13bf
00000040: 5b36 9abf 314c 31bf 90d6 79bf 2cb2 5d3d
00000050: 5813 0f3f e87a 233f e645 b3bf a016 b9bf
-0.86643505 -0.6085419 1.0076902 -0.85316074 -0.93526244 -0.8974613 -0.58711076 -0.5780103
0.39020503 -0.09672467 -0.81277734 1.139519 0.7460932 0.5196886 0.49183342 -0.5771399
-1.2047838 -0.69256884 -0.9759302 0.054124996 0.5588889 0.63859415 -1.4005706 -1.446003

streaming/batch_normalization_4/FusedBatchNormV3;streaming/stream_5/depthwise_conv2d_3/depthwise;streaming/stream_5/depthwise_conv2d_3/BiasAdd;stream_5/bias f4 [1, 4, 1, 24]
00000000: 1852 2f3f 1553 133f 6b64 5dbf 5dad 463f
00000010: 9d44 c23f 750a 0b40 54d5 8740 0fa5 6640
00000020: a885 b0bf a56c e4be f0b8 5a3f 7b4c 453e
00000030: 6f6d 89bf 8218 3e3f b93d 75bd 19ef efbe
00000040: c3ba b43f 49b9 84bf 2d98 423e 8c05 8abf
00000050: e4bf 18c0 c105 32c0 7f89 253f 1d85 113e
00000060: c386 01be 2f52 543f d00e 1fbf 9125 383f
00000070: 401d 3240 61b9 0a40 c9de a640 3ec5 9140
00000080: 6444 143e b2b0 0dbf 6e26 b2bf fde7 95bf
00000090: 8313 6fbe 8034 18bf 2eaf 29bf 62ae c0be
000000a0: aa82 d13f 6ab6 5b3f c831 4a3f f34a 893f
000000b0: 40ae 39c0 9852 2ac0 b27f e13f 5202 e83f
000000c0: df36 883f 57e9 be3c 3e00 38bf 11c2 c9be
000000d0: c7e2 4340 5778 1f40 dca4 6fc0 10aa 56c0
000000e0: fc5b c53d 40d9 3f3f 5ad3 423f 2e6a 93bf
000000f0: debc 6abf aa78 00c0 8206 c3be 91f4 733e
00000100: 5622 e93f 2845 6a3f 7f37 343f 47ae ce3f
00000110: 93fa 1ac0 7d6a 81c0 86c1 103f 7a23 0a3f
00000120: ba83 443f 55d8 203f c4a3 00bf 3dcf 063f
00000130: f178 0140 3416 eb3f 7565 1b40 9174 1240
00000140: b3b3 fbbe 1c4b 8b3e 5afb ba3f f2dd 78bf
00000150: 098f 103e d13f 1a3e c4af f7be 41b7 e63f
00000160: 576c 433f fdce 7c3f e2ec 0a3f 54ca babf
00000170: 00c7 78c0 3af7 c9bf 8ce1 bd3e 6437 0e3f
0.6848464 0.5754865 -0.8648135 0.7760828 1.5177189 2.1725132 4.244791 3.6038244
-1.3790789 -0.4461414 0.8543844 0.19267456 -1.0736521 0.74256146 -0.059873316 -0.46862105
1.4119495 -1.0369045 0.19003363 -1.0782943 -2.386712 -2.7816012 0.6466293 0.14210935
-0.12649064 0.829379 -0.6213198 0.7193232 2.7830353 2.1675646 5.2146955 4.5553274
0.14479214 -0.5534774 -1.3917978 -1.1711422 -0.23347287 -0.5945511 -0.6628293 -0.37633044
1.6368 0.85825217 0.7898221 1.0725998 -2.9012604 -2.6612911 1.7617095 1.8125708
1.0641745 0.023304624 -0.7187537 -0.39405873 3.0607164 2.49172 -3.7444372 -3.3541298
0.09636685 0.7494087 0.76103747 -1.1516778 -0.9169444 -2.0073647 -0.38090903 0.23823763
1.8213603 0.91511774 0.7039718 1.6146935 -2.4215438 -4.044249 0.56545293 0.5396038
0.767635 0.62830096 -0.50249887 0.5265997 2.0230067 1.8366151 2.4280674 2.2883646
-0.49160537 0.2720574 1.4607956 -0.9721366 0.14117064 0.15063407 -0.48376286 1.8024675
0.7633719 0.9875334 0.54267704 -1.4592996 -3.887146 -1.5778573 0.3708614 0.5555327

streaming/dense/MatMul f4 [10, 48]
00000000: 9435 3a3e 00d0 a2ba be1e 2abd 93e6 80bc
00000010: 270a 8c3d 602d 973e fdd0 5a3e 315c a73c
00000020: 7c58 ea3d 650d 633e e64f bd3b cb00 c0bc
00000030: af20 193e 061f 963c a580 df3d 7c79 d23d
00000040: a2fc bc3e 4b43 013e 0b39 1bbe 4642 333e
00000050: e730 133b aa35 6fbe 3db9 13be 25fe 82be
00000060: b2cd b03e 9c2a 053e f3e1 a1bd 8bec cdbc
00000070: a9f5 0d3e 5645 42bc 8654 903d 33c6 823e
00000080: f18a 0d3e 0dc1 143e 7b53 74be c94b 2abe
00000090: e84a 603b 8b3c 4b3d 9641 633d e703 b33d
000000a0: 2d2d 64be ab5a 283e 27f1 aabd 87ab 34bd
000000b0: 1e75 613e 92ee 423d 59d4 acbd 60d4 823e
000000c0: 7e59 a33d a104 b03c 27b2 41be b1f8 1ebd
000000d0: cf62 633e 3136 4fbe 2a29 223e ad09 823e
000000e0: 89c5 4ebe 2d08 0ebe 05b9 8ebe eb8b 54be
000000f0: 9892 e33d beda 56be a332 8e3d c0b8 fe3d
00000100: 0e76 f3bb 738a 7a3e ad4b 343e 0a82 d5bc
00000110: 8e11 a93d cadc 70be 973a 1fbe 40fc c6bd
00000120: 0b1a b53c 49af fabd 5759 a4be 2f68 9a3b
00000130: e8b8 d2bd 2fe4 2f3e 3abf 96be b7f0 143e
00000140: 10fd c3bc b452 473e 7a66 083e c458 bebd
00000150: d707 6dbe 149f 90bd 6821 803d ea3a ba3c
00000160: f0a1 84bd d69f 783e b0cf 06be a64d 073d
00000170: ac2a 4fbe 80c2 253e 1866 02be 684e 503e
00000180: 497f c0be cc78 b93e eb0b a43d c70a b63d
00000190: 6e9a 45be 3286 ed3d c2a6 da3d 12db eabd
000001a0: f563 85be 71e6 66bd b195 2d3e a1b7 57be
000001b0: ba48 8fbe 0815 72be 10ff 55bc f125 60be
000001c0: 44b2 5fbe 3874 5a3c 4fba 433e 6710 d1bc
000001d0: 6e12 0c3e c7f0 c9bd 6ff5 93be 96f1 2bbe
000001e0: f5f0 483e 3184 96be 4090 aa3d 1b51 5cbe
000001f0: 5870 af3d 2f7f 4dbd 7f45 afbe 02cf 1ebe
00000200: 5833 a4be e8fd 5bbe f844 02be b6d9 2f3e
00000210: 4da8 873c d5eb 52be 1002 dfbd 11b3 82be
00000220: 2f86 12be 199d e13c 769c 5b3e 2253 e3bc
00000230: 08cb 0f3c a886 52be 7d37 763d dc04 443e
00000240: 29f0 753d ecb0 283e 69f6 f83d 9c18 cebd
00000250: aaa7 87bc 5d96 75be 2504 693e 1db9 193e
00000260: c33c b3bd 85b2 87be a1b2 923e f0ce 6abd
00000270: 7149 e5bc ad02 d5be f52e cf3e fa0e ea3d
00000280: 6f9d 62bc 12e5 80be a873 8bbe b19a 82be
00000290: dfd5 a5bd bf9a 9b3e 9d37 0c3e 4b39 12bd
000002a0: 32c0 59be fe30 86be b4f2 d83e 4f63 fb3c
000002b0: 5794 94be cbf7 5abe ae51 a0be 4c39 9c3d
000002c0: 3440 b63e e9ba 1f3d e5b8 913e fe2c 243e
000002d0: 5951 963d 8ace 923d 968d 5d3d 2495 6e3d
000002e0: 2f13 a3be bfb2 1e3e 5e17 433e 4ce8 b93c
000002f0: cd25 683e 3976 6cbe 5860 aabd f503 463e
00000300: 2788 a2be 029d 183e f9f6 a2be 0279 41be
00000310: 8116 6c3e 1cb0 27bc a0fc e7bd 7dc2 15be
00000320: 7806 cfbc 5867 8dbe 47a2 44be b27c 17be
00000330: 6957 f83d af75 943e d5e2 a3bd f58c a73d
00000340: b1cb 023e dba4 1abe d6f2 09be 2478 29be
00000350: 5f48 9fbd c841 863d 1e1f 1b3e 2c25 a1bd
00000360: be45 0fbc 2011 353e bf97 72be 2df2 2e3d
00000370: a18c ad3e f55f 6bbe 9111 b23d d998 8e3d
00000380: 2f79 08be 33f7 67bd 86fb 3abe f9b0 77be
00000390: b7ef f4bd 8af6 443e 1e7d 193d 89c7 32be
000003a0: bcc4 03be 7a67 333e 3307 86be 0186 56be
000003b0: 5fcc 63be 9643 34bd d198 61be 9f36 9dbe
000003c0: f3d1 00bf 7d06 abbe 015d 7f3e b522 aebe
000003d0: b574 a03d 4726 033d 286d efbd 8ec1 61be
000003e0: e78b 8e3c af5b 583e e7bf e9bd 018b da3d
000003f0: e734 ec3d f2ae 763e cca7 24bb b1e3 c43d
0.18184501 -0.0012421608 -0.041533224 -0.015734946 0.06837874 0.29526806 0.21368785 0.020429702
0.11442658 0.22173078 0.005777347 -0.023437878 0.14953874 0.01832534 0.10913209 0.102770776
0.36911494 0.12623326 -0.15158479 0.1750575 0.0022459568 -0.23360315 -0.14426132 -0.25584522
0.34531933 0.13004535 -0.079044245 -0.025137207 0.13863243 -0.011857351 0.070473716 0.2554184
0.13822533 0.14526768 -0.2385997 -0.16630472 0.0034224335 0.049618285 0.05548247 0.08740979
-0.22282858 0.16440837 -0.083467774 -0.044108894 0.22017333 0.0475908 -0.084389396 0.25552654
0.07976054 0.021486582 -0.18915616 -0.03881139 0.22205661 -0.20235516 0.15836015 0.25398007
-0.20192541 -0.13870306 -0.27875534 -0.207565 0.11111945 -0.20981881 0.06943252 0.12437582
-0.0074298447 0.24466877 0.17606993 -0.026062984 0.082553014 -0.23521724 -0.15549694 -0.097160816
0.022107145 -0.12240464 -0.3209941 0.0047121267 -0.10289174 0.17176889 -0.2944277 0.1454495
-0.02392438 0.19465142 0.13320342 -0.092942744 -0.23147522 -0.07061592 0.06256372 0.02273317
-0.064761996 0.24279723 -0.13165164 0.033033036 -0.20231122 0.16187477 -0.12734258 0.2034241
-0.3759711 0.36224973 0.08010086 0.08888774 -0.19297192 0.11597861 0.10676338 -0.114675656
-0.26052824 -0.05637211 0.16951634 -0.21066143 -0.27985173 -0.23640835 -0.0130613 -0.21889473
-0.21845347 0.013333373 0.1911404 -0.025520517 0.13678905 -0.09860378 -0.28898188 -0.16791376
0.19623168 -0.2939773 0.08328295 -0.21515314 0.0856635 -0.05017012 -0.3423271 -0.15508655
-0.32070422 -0.21483576 -0.12721622 0.17172894 0.016559744 -0.20597775 -0.10889065 -0.25527242
-0.14309 0.02754073 0.21446404 -0.027749602 0.008776434 -0.2055918 0.06011151 0.19142479
0.060043488 0.1647374 0.12156374 -0.100632876 -0.01655944 -0.2398314 0.22755487 0.15012021
-0.08751824 -0.26503387 0.28651908 -0.057326257 -0.027989121 -0.41603604 0.40465513 0.11428638
-0.01383148 -0.25174767 -0.27236676 -0.25508645 -0.08097433 0.303915 0.1369309 -0.03569917
-0.21264723 -0.26209253 0.42372668 0.030687002 -0.29019424 -0.21383588 -0.31312317 0.07628116
0.35595858 0.03899661 0.28461376 0.16032788 0.073397346 0.071683004 0.054090105 0.0582477
-0.31850573 0.15497874 0.19051883 0.022693776 0.2267067 -0.23091973 -0.08319157 0.19337447
-0.317445 0.14903644 -0.3182905 -0.18893817 0.2305546 -0.010234859 -0.11327481 -0.14624973
-0.02527164 -0.27617908 -0.19202529 -0.14793661 0.12126047 0.28996035 -0.08002249 0.08181182
0.12773015 -0.1510195 -0.13471541 -0.16549736 -0.077774756 0.065555155 0.15148589 -0.07868418
-0.008744655 0.17682314 -0.23690699 0.042711426 0.33896354 -0.22985823 0.08694757 0.06962747
-0.13327478 -0.056632232 -0.18260011 -0.24188603 -0.119597845 0.19234672 0.037472837 -0.17458929
-0.12868017 0.17519942 -0.26177368 -0.20949556 -0.2224593 -0.044009767 -0.22030951 -0.30705735
-0.5032036 -0.33403388 0.24937822 -0.34010854 0.0783476 0.032018926 -0.11690742 -0.22046492
0.017400695 0.21128725 -0.114135556 0.10671044 0.11533528 0.24090174 -0.0025124429 0.09613741

streaming/dense_1/MatMul f4 [2, 10]
00000000: d1ff 923e 342f db3e ca3f 0d3f dac5 c9be
00000010: 4ce9 173f b960 0fbf 1803 983e b343 863e
00000020: 073a 893e cce5 10bf 0f0a 92be bb8d 20be
00000030: 2d3f 683e eae2 ccbd 2beb 233c aede 413e
00000040: 9d7a e6be 673e 2ebe 788f 78be f139 e1be
0.28710797 0.4280945 0.5517546 -0.3940876 0.5934036 -0.5600696 0.2968986 0.26223525
0.26802084 -0.5660064 -0.285233 -0.15679066 0.2268035 -0.10004218 0.010004799 0.18932602
-0.45015422 -0.17015992 -0.24273479 -0.43989518

streaming/stream/conv2d/Conv2D f4 [3, 6, 1, 1]
00000000: 7005 3740 dcce 243d 16da 04c1 93e3 883f
00000010: 02dc 4440 aa5b 02be 8733 9d40 ed8b 3040
00000020: 883a 25c0 ecbe 5440 e309 78c0 edfb 0640
00000030: 8ac5 1340 75da 9fc0 9646 883f 7b1d bf40
00000040: 842c ea3e e2fc a8bf
2.8597069 0.04023634 -8.303244 1.069445 3.0759282 -0.1273028 4.91254 2.7585404
-2.5816975 3.324153 -3.8756034 2.1091263 2.3089318 -4.995417 1.0646541 5.9723487
0.45737088 -1.3202174
